model/model.pth (torch, 522683 bytes, 13 tensors)

fc1.weight f4 [64, 25]
0.1397158 0.09686085 -0.17832738 -0.17314659 0.11437486 -0.08670208 0.15357408 -0.057224248
0.20660113 0.115749255 0.20043074 -0.12046611 -0.06847158 -0.077184014 -0.07580118 0.06273519
-0.028298227 0.029980604 -0.13505976 0.08438995 0.03739837 -0.11993501 -0.020594828 0.12452004
0.087392874 0.08527789 0.12828308 0.003142324 0.17749141 0.1893387 0.1624479 0.05230785
0.1529519 0.045895766 -0.09315707 0.10704254 0.107591495 0.12577157 -0.17568092 -0.04981062
0.104237296 -0.10699856 0.19085222 0.02188068 -0.022976944 0.112535186 -0.022602463 -0.055217188
-0.15110329 -0.14715642 0.025960155 0.046423536 -0.16824469 -0.17111436 0.056275755 -0.11448545
-0.21768464 -0.024576413 -0.15628676 0.14424656 -0.22580631 -0.19649312 -0.025195656 -0.025576903
-0.048154924 0.14202912 -0.05583529 0.02492064 -0.01458499 0.12665589 -0.069082364 0.099095844
-0.12763083 -0.0331159 0.16897698 0.1438847 0.20826308 0.09608654 0.12400289 0.0714315
-0.118365236 -0.07006788 0.052008197 0.11143965 -0.034023806 0.07231659 0.11704381 0.043331556
0.20357494 -0.036600363 0.05865519 -0.051496446 0.18161228 -0.14613591 0.14965208 0.14670274
0.21263252 0.038488526 -0.16265279 0.10726114 0.068429515 0.007754696 -0.0044161836 -0.17729664
-0.076591685 0.12257279 0.027333077 -0.048860345 -0.15237983 -0.075403005 0.15891327 -0.12315223
-0.048881195 0.07337024 -0.018623142 0.15702665 -0.07730418 0.19854867 0.1691138 -0.059470695
-0.16892211 0.025864856 -0.11235128 0.1462558 0.058988698 0.053858597 0.03470185 0.12392775
0.12038769 0.2172473 0.21982142 -0.0023129154 -0.15239057 0.14847969 0.058606803 -0.11768627
0.08595429 -0.044018473 0.0647832 -0.13171902 0.09273916 -0.17166083 -0.17563534 -0.13467167
0.1236175 -0.19034825 0.17539239 0.088211305 -0.051567398 0.10768704 0.091612786 -0.1258778
0.05701776 0.015152144 0.09308191 0.049745537 -0.135067 0.09932727 -0.06127669 0.10110305
-0.078242496 0.09914573 0.014812707 0.041637983 -0.07060624 -0.101639174 0.034297656 0.002692849
0.16581523 0.050472587 0.18023534 0.19902144 0.111298285 -0.1025158 -0.07822502 -0.18458997
0.11867543 -0.18647449 0.085037746 -0.15106007 -0.20588492 -0.058455966 0.011478929 -0.14426847
-0.0056868754 -0.10568695 -0.11400806 -0.13562103 -0.17899768 0.054646753 -0.07458189 0.060221437
0.032355703 -0.19370782 0.14315613 -0.17939802 0.03678477 0.10244325 -0.16866472 -0.11926743
0.08261081 -0.15517338 -0.07738441 0.16556294 0.20283042 -0.1683886 -0.049986757 0.03845029
0.0635756 0.038664397 0.021820819 0.19492014 0.17514095 0.19422442 0.21475585 0.11949325
0.15363187 0.20922625 -0.12533242 0.0398362 0.0813323 -0.15862542 -0.096277185 -0.002145879
0.06525852 -0.15749896 -0.06610921 0.0013924849 0.19209851 -0.18720159 0.06579661 -0.09893231
-0.005799625 0.10524491 -0.033023164 -0.12761647 -0.17541389 0.16450839 0.14365548 0.009661426
-0.100780465 -0.025797997 0.019457884 -0.0154052675 -0.13971367 -0.17327385 -0.04544994 0.07617101
-0.2153454 -0.20716362 -0.050878294 0.14177214 -0.11845212 -0.033924356 0.17313094 -0.14916112
00000000: a911 0f3e fb5e c63d 749b 36be 574d 31be
00000010: 5e3d ea3d dc90 b1bd 8642 1d3e f963 6abd
00000020: 3f8f 533e f20d ed3d b73d 4d3e f0b6 f6bd
00000030: d43a 8cbd a712 9ebd a63d 9bbd 4f7b 803d
00000040: afd1 e7bc e299 f53c 1b4d 0abe a3d4 ac3d
00000050: 092f 193d 7da0 f5bd 7cb6 a8bc 5d04 ff3d
00000060: 09fb b23d 2da6 ae3d a45c 033e 73ef 4d3b
00000070: 4fc0 353e 01e2 413e be58 263e c240 563d
00000080: 6c9f 1c3e 33fd 3b3d 22c9 bebd 1f39 db3d
00000090: ee58 dc3d 43ca 003e b3e5 33be 3806 4cbd
000000a0: 5d7a d53d 1022 dbbd c46e 433e 1d3f b33c
000000b0: 253a bcbc d978 e63d cd28 b9bc 6b2b 62bd
000000c0: d2ba 1abe 2cb0 16be 64aa d43c 9b26 3e3d
000000d0: 5648 2cbe 9a38 2fbe 6881 663d 5977 eabd
000000e0: b9e8 5ebe 7954 c9bc a309 20be 5fb5 133e
000000f0: c539 67be 7e35 49be 1f67 cebc a786 d1bc
00000100: 193e 45bd 1570 113e 8cb3 64bd 5f26 cc3c
00000110: e2f5 6ebc 15b2 013e 0e7b 8dbd c3f2 ca3d
00000120: a8b1 02be 8aa4 07bd 4d08 2d3e 8356 133e
00000130: eb42 553e 05c9 c43d 3af5 fd3d ae4a 923d
00000140: 7969 f2bd c07f 8fbd 8c06 553d 793a e43d
00000150: 8c5c 0bbd b81a 943d aab4 ef3d 6e7c 313d
00000160: f375 503e 43ea 15bd 6d40 703d f0ed 52bd
00000170: 92f8 393e a7a4 15be 653e 193e 3e39 163e
00000180: 57bc 593e 25a6 1d3d 748e 26be bbab db3d
00000190: c624 8c3d 1b1b fe3b a2b5 90bb 408d 35be
000001a0: 1adc 9cbd 7107 fb3d 9ee9 df3c c921 48bd
000001b0: 7509 1cbe e46c 9abd 29ba 223e 3d37 fcbd
000001c0: a637 48bd 2343 963d 8f8f 98bc 98cb 203e
000001d0: a751 9ebd 5850 4b3e 2b2c 2d3e 8b97 73bd
000001e0: ebf9 2cbe 89e2 d33c 6e18 e6bd 15c4 153e
000001f0: 229e 713d d59a 5c3d 8723 0e3d d5cd fd3d
00000200: d28d f63d 1476 5e3e de18 613e 4894 17bb
00000210: 460c 1cbe 0f0b 183e b00d 703d 8005 f1bd
00000220: ce08 b03d b74c 34bd 0ead 843d 5ae1 06be
00000230: 07ee bd3d dbc7 2fbe c0d9 33be 5fe7 09be
00000240: 2c2b fd3d a7ea 42be 109a 333e 21a8 b43d
00000250: 5638 53bd 068b dc3d 7c9f bb3d 1ce6 00be
00000260: 748b 693d b340 783c baa1 be3d fac1 4b3d
00000270: 014f 0abe 196c cb3d 44fd 7abd 1e0f cf3d
00000280: 9a3d a0bd eb0c cb3d ffb0 723c 978c 2a3d
00000290: 019a 90bd 3328 d0bd b37b 0c3d 827a 303b
000002a0: 78cb 293e 58bc 4e3d 9d8f 383e 47cc 4b3e
000002b0: 5bf0 e33d cef3 d1bd 7034 a0bd 2705 3dbe
000002c0: 1b0c f33d 2bf3 3ebe 4528 ae3d 7eaf 1abe
000002d0: 7fd3 52be 866f 6fbd 1e12 3c3c 1dbb 13be
000002e0: f858 babb 6672 d8bd 0f7d e9bd 3de0 0abe
000002f0: 2b4b 37be 46d5 5f3d 64be 98bd c1aa 763d
00000300: 6a87 043d 585b 46be 8597 123e 1db4 37be
00000310: a1ab 163d c4cd d13d 72b6 2cbe 7b42 f4bd
00000320: db2f a93d c5e5 1ebe b87b 9ebd 5589 293e
00000330: c7b2 4f3e 106e 2cbe eabe 4cbd 0d7e 1d3d
00000340: ed33 823d 8f5e 1e3d 93c1 b23c 2599 473e
00000350: 2658 333e c4e2 463e f5e8 5b3e e1b8 f43d
00000360: ac51 1d3e 683f 563e 2457 00be 492b 233d
00000370: 8d91 a63d b46e 22be f92c c5bd e0a1 0cbb
00000380: 42a6 853d 6847 21be 4464 87bd 0a84 b63a
00000390: 79b5 443e c6b1 3fbe 60c0 863d 069d cabd
000003a0: c80a bebb a58a d73d 4c43 07bd e4ad 02be
000003b0: b39f 33be e374 283e 6c1a 133e f54a 1e3c
000003c0: fd65 cebd 5256 d3bc 2466 9f3c 6066 7cbc
000003d0: 1a11 0fbe b36e 31be b729 3abd 8cff 9b3d
000003e0: 8183 5cbe b322 54be c265 50bd b72c 113e
000003f0: 0697 f2bd 44f4 0abd 3d49 313e b1bd 18be

fc1.bias f4 [64]
-0.14646317 -0.15230563 0.12934615 -0.13818581 0.062288877 0.0062429802 0.10079404 0.09052361
-0.10996986 -0.14470942 0.0364226 -0.008504762 0.01947645 -0.03165019 -0.022524472 0.037091244
0.12891006 0.088947766 0.013235696 0.18956141 -0.0502814 0.021031853 0.016124345 0.19632365
0.16278014 -0.07335841 0.19453627 -0.0025357078 0.14141527 0.13300397 -0.17840755 -0.037979167
-0.03547406 -0.034165423 0.10837344 0.05503188 0.13634075 -0.059442353 0.09718324 -0.08478977
-0.0023591528 0.10413186 0.16229276 0.19878435 -0.074898034 -0.00037629684 0.0058796243 0.0736927
-0.028358066 -0.15932271 0.011546131 -0.16009511 -0.0019870093 -0.18884574 0.15876605 0.049659435
0.079709396 0.07983924 -0.09124213 0.18121462 0.22735986 0.17138869 -0.12069164 0.09051445
00000000: 71fa 15be 02f6 1bbe 5173 043e 9580 0dbe
00000010: 9f22 7f3d ea91 cc3b 1b6d ce3d 7164 b93d
00000020: e137 e1bd b52e 14be dd2f 153d 8f57 0bbc
00000030: 138d 9f3c a1a3 01bd 3e85 b8bc fdec 173d
00000040: 0001 043e 3f2a b63d 88da 583c 631c 423e
00000050: dff3 4dbd fe4a ac3c 3417 843c 1109 493e
00000060: d6af 263e ef3c 96bd 8434 473e 1e2e 26bb
00000070: 2acf 103e 3132 083e 78b0 36be 0b90 1bbd
00000080: 3f4d 11bd 0bf1 0bbd e5f2 dd3d 1c69 613d
00000090: e99c 0b3e d379 73bd 0208 c73d 42a6 adbd
000000a0: 049c 1abb 1643 d53d 1330 263e 208e 4b3e
000000b0: 2464 99bd b549 c5b9 dda9 c03b 33ec 963d
000000c0: 2d4f e8bc 7e25 23be fc2b 3d3c f9ef 23be
000000d0: 7c38 02bb c760 41be 9193 223e b167 4b3d
000000e0: ae3e a33d c182 a33d 27dd babd 5390 393e
000000f0: 06d1 683e 8480 2f3e 2e2d f7bd a45f b93d

fc2.weight f4 [64, 64]
-0.013839841 0.045933813 -0.0075249337 0.08427553 0.079541594 -0.083177835 0.02056132 0.10498904
-0.10018018 -0.01207265 -0.123196766 0.07502806 -0.020194476 -0.05982083 0.06407899 -0.050846126
-0.095634475 0.03628485 -0.05463183 -0.10715056 0.03195001 0.078706354 -0.056687534 -0.08665885
0.072410285 -0.11911023 0.11247106 0.009574965 -0.013412229 -0.11716105 0.016663238 -0.055461287
0.09402865 0.084759176 -0.100017495 -0.05933691 0.031716403 0.039070364 -0.08119849 0.07282377
0.012920233 0.018417366 0.057933882 -0.0690925 -0.110590935 0.028450489 0.065356605 -0.06021224
0.03605804 0.02438657 -0.1343168 0.041783486 -0.033575505 -0.04379329 0.06719135 -0.062458128
-0.009623416 -0.11516057 -0.087059766 -0.09286795 0.06188549 -0.05979204 0.04348831 -0.06309886
-0.014235503 -0.014506166 -0.04510836 0.09711741 0.0028885263 0.04060135 -0.04887825 0.023730041
0.0444351 0.028210746 0.039790902 -0.09783763 0.019281311 -0.07681067 0.044461872 -0.09064382
0.118001945 -0.008994034 0.07252611 -0.060402807 0.058817208 0.09452242 0.11185776 0.011562756
-0.011592573 -0.109641746 0.010012427 -0.07365089 -0.0488776 -0.07885511 0.011227512 -0.09294421
0.10435811 -0.09626076 -0.014588746 0.08999546 -0.10075561 0.016762584 -0.05248081 0.06727352
0.007151565 -0.0121738715 -0.116072685 0.04564318 -0.10075247 0.011205632 0.10692803 0.008502631
0.025201289 0.07716054 0.04299979 -0.09243464 0.0058985082 -0.030362407 0.11428902 -0.08104658
0.05373438 -0.089298084 -0.0040670983 -0.11610174 -0.018490173 0.08426541 0.10350118 0.11813734
-0.04044657 -0.018574579 -0.008871501 0.023499418 -0.05242426 -0.102733806 0.089367636 -0.11434923
0.0132206455 0.036885913 0.0890062 0.0024206317 -0.042727962 -0.054829653 0.083944105 0.09533807
-0.07764298 0.12928134 0.0046628634 0.09952692 0.09936419 0.14312845 -0.093293436 -0.060486633
0.011914182 -0.068051964 0.104932725 0.014613485 -0.0937329 0.084045164 -0.054836553 -0.10211937
-0.09457639 -0.036174793 0.07534179 0.12745686 -0.010209512 0.050260317 -0.09857006 -0.052955974
-0.07877421 0.06977881 0.030416671 -0.004676168 0.08513784 -0.06730248 0.09046663 -0.06783677
0.1300986 0.024569565 0.063130185 0.13805081 0.07803401 -0.079252936 0.008448108 -0.018605614
0.020751331 -0.13395976 -0.12442819 -0.021506796 0.13347776 -0.027780902 0.008884756 0.023881989
-0.021958888 -0.03473099 -0.05167014 -0.09055263 0.114651605 0.0075097303 -0.018063406 0.031406093
-0.03809455 0.12507287 0.10367971 0.040022865 0.015429875 0.04057322 -0.042067207 0.07831435
-0.012951388 -0.011423261 0.09087842 0.02911431 0.110546134 -0.07044375 -0.059657 0.02800623
-0.043449145 0.09451779 0.072978206 -0.05262014 0.06357007 -0.018990455 0.069020905 -0.077387124
0.057941154 -0.029116144 0.052514467 0.0013989031 -0.0089367535 -0.027819376 -0.08605064 -0.09046987
-0.076379746 0.03857885 0.09885705 0.09961733 -0.106186084 -0.0022330617 0.122184835 0.12032597
-0.075863555 0.07687685 -0.012183882 -0.08050131 -0.07140426 -0.11389009 0.104164116 0.06435517
-0.044208463 0.12606087 0.018617075 0.10974058 -0.1106358 -0.048413403 0.114504196 0.050246824
00000000: 80c0 62bc 1825 3c3d b893 f6bb a698 ac3d
00000010: b4e6 a23d 2459 aabd 3770 a83c 7e04 d73d
00000020: 442b cdbd 5dcc 45bc 964e fcbd 50a8 993d
00000030: e36e a5bc b006 75bd d83b 833d 0744 50bd
00000040: 02dc c3bd 6c9f 143d a0c5 5fbd c171 dbbd
00000050: 04de 023d cc30 a13d 3031 68bd 327a b1bd
00000060: d84b 943d 10f0 f3bd 3a57 e63d 50e0 1c3c
00000070: f7be 5bbc 22f2 efbd 5881 883c 602b 63bd
00000080: 1892 c03d 3896 ad3d f9d5 ccbd 420b 73bd
00000090: 0fe9 013d 3f08 203d 654b a6bd a124 953d
000000a0: 63af 533c 04e0 963c 144c 6d3d 5e80 8dbd
000000b0: 807d e2bd 0011 e93c afd9 853d 1ca1 76bd
000000c0: 98b1 133d 58c6 c73c 588a 09be 2925 2b3d
000000d0: 7886 09bd 9860 33bd 9e9b 893d 18d4 7fbd
000000e0: 88ab 1dbc 4ed9 ebbd 644c b2bd 8d31 bebd
000000f0: a47b 7d3d 80e8 74bd cc20 323d fa39 81bd
00000100: 073c 69bc 45ab 6dbc 8bc3 38bd 7ee5 c63d
00000110: 6e4d 3d3b 9a4d 263d 8f34 48bd 8165 c23c
00000120: 9401 363d 391a e73c c9fb 223d 185f c8bd
00000130: d7f3 9d3c ea4e 9dbd a71d 363d 78a3 b9bd
00000140: 01ab f13d b65b 13bc 9288 943d ef68 77bd
00000150: 50ea 703d f894 c13d ae15 e53d b771 3d3c
00000160: c6ee 3dbc da8b e0bd 2a0b 243c 47d6 96bd
00000170: e133 48bd ca7e a1bd 99f3 373c 8959 bebd
00000180: b4b9 d53d 5d24 c5bd a305 6fbc 8a4f b83d
00000190: f558 cebd b051 893c 1ef6 56bd b3c6 893d
000001a0: ad57 ea3b eb74 47bc 84b7 edbd 58f4 3a3d
000001b0: 5057 cebd d497 373c 15fd da3d 9f4e 0b3c
000001c0: ef72 ce3c 5806 9e3d 8c20 303d 5f4e bdbd
000001d0: 4648 c13b 95ba f8bc 5d10 ea3d c0fb a5bd
000001e0: 9518 5c3d eae1 b6bd 4b45 85bb c0c6 edbd
000001f0: b478 97bc 5893 ac3d 6df8 d33d fdf1 f13d
00000200: 4dab 25bd b729 98bc c659 11bc da81 c03c
00000210: d2ba 56bd 1a66 d2bd 6106 b73d ee2f eabd
00000220: 689b 583c af15 173d e248 b63d 76a3 1e3b
00000230: 8403 2fbd 0f95 60bd e3ea ab3d 9b40 c33d
00000240: 4803 9fbd 5462 043e efca 983b c5d4 cb3d
00000250: 747f cb3d 4490 123e a110 bfbd d5c0 77bd
00000260: b433 433c d45e 8bbd f8e6 d63d 666d 6f3c
00000270: 09f7 bfbd df1f ac3d 4b9c 60bd f623 d1bd
00000280: 44b1 c1bd 052c 14bd cc4c 9a3d 0d84 023e
00000290: cc45 27bc c3dd 4d3d 1adf c9bd 5de8 58bd
000002a0: 5f54 a1bd 31e8 8e3d 622c f93c 8a3a 99bb
000002b0: bf5c ae3d e2d5 89bd 9246 b93d 01ee 8abd
000002c0: 9138 053e 1d46 c93c 664a 813d 315d 0d3e
000002d0: 4cd0 9f3d 5d4f a2bd ef69 0a3c cd6a 98bc
000002e0: b2fe a93c bf2c 09be 35d4 febd 052f b0bc
000002f0: 65ae 083e c694 e3bc 5e91 113c 29a4 c33c
00000300: 20e3 b3bc 1542 0ebd 12a4 53bd a873 b9bd
00000310: 76ce ea3d 2f14 f63b b5f9 93bc ada3 003d
00000320: 0809 1cbd 1a13 003e 0756 d43d 04ef 233d
00000330: 96cd 7c3c 1b30 263d aa4e 2cbd 4663 a03d
00000340: 0f32 54bc a128 3bbc 771e ba3d 2281 ee3c
00000350: 0366 e23d d044 90bd e65a 74bd 526d e53c
00000360: bbf7 31bd 8b92 c13d 9975 953d 3788 57bd
00000370: 0631 823d df91 9bbc d55a 8d3d 247d 9ebd
00000380: b453 6d3d fb84 eebc 6919 573d 665b b73a
00000390: 766b 12bc 76e5 e3bc 513b b0bd 4448 b9bd
000003a0: fc6c 9cbd db04 1e3d 9175 ca3d 2c04 cc3d
000003b0: 1778 d9bd 8f58 12bb 0b3c fa3d 766d f63d
000003c0: 5a5e 9bbd 9c71 9d3d e89e 47bc dfdd a4bd
000003d0: 663c 92bd 353f e9bd ff53 d53d a5cc 833d
000003e0: ef13 35bd 1a16 013e d682 983c abbf e03d
000003f0: 0695 e2bd 224d 46bd 2d81 ea3d 9dcf 4d3d

fc2.bias f4 [64]
-0.061269704 -0.087544195 0.034808744 0.0125794085 0.02603251 -0.09217377 -0.05009637 -0.022409163
0.03852463 -0.050231148 0.019079888 -0.003655696 0.016903203 -0.034162946 -0.08778156 -0.013268563
0.017639048 0.052807085 0.1402506 0.05679246 -0.101473995 0.10426132 -0.03754514 0.12720206
-0.017016418 0.10870936 -0.009965596 0.08482724 -0.11903696 -0.011324752 -0.06901979 -0.058810495
-0.017941441 -0.0018611393 -0.008526261 0.06191015 0.07315507 0.097663276 0.007960084 0.010140874
-0.030435925 0.08948105 -0.10053858 -0.0808939 0.07889414 -0.11708447 -0.09047145 -0.049790032
-0.08616256 0.07993638 0.0037877182 0.07993858 -0.043512814 0.07097357 -0.038759932 0.052249756
-0.1277996 0.063219525 -0.07660522 -0.066824116 0.13006161 -0.0018853212 -0.03861737 0.065853834
00000000: f1f5 7abd 5f4a b3bd 9d93 0e3d dd19 4e3c
00000010: 2142 d53c 9ac5 bcbd da31 4dbd 6c93 b7bc
00000020: 01cc 1d3d 2dbf 4dbd 6d4d 9c3c 6794 6fbb
00000030: 9678 8a3c 72ee 0bbd d2c6 b3bd 6364 59bc
00000040: c47f 903c 3e4c 583d da9d 0f3e 369f 683d
00000050: 99d1 cfbd f586 d53d efc8 19bd 4241 023e
00000060: 0466 8bbc 03a3 de3d bd46 23bc e7b9 ad3d
00000070: a6c9 f3bd 748b 39bc 3f5a 8dbd 46e3 70bd
00000080: eef9 92bc 79f1 f3ba bbb1 0bbc 7f95 7d3d
00000090: 53d2 953d af03 c83d 036b 023c e925 263c
000000a0: c354 f9bc d741 b73d 2ce7 cdbd b3ab a5bd
000000b0: 4093 a13d fcc9 efbd 1849 b9bd a2f0 4bbd
000000c0: ff75 b0bd afb5 a33d 5e3b 783b d7b6 a33d
000000d0: 7e3a 32bd 975a 913d bcc2 1ebd d703 563d
000000e0: e6dd 02be 3d79 813d 33e3 9cbd 15db 88bd
000000f0: df2e 053e e21c f7ba 3f2d 1ebd 60de 863d

fc3.weight f4 [128, 64]
0.11542134 -0.0012431662 0.11930145 -0.037969373 -0.0028743101 -0.019369181 0.11676564 -0.044042557
0.14506368 -0.036344163 0.09293636 0.020549554 -0.025468297 0.080478765 0.021948477 -0.055975817
0.026611088 -0.007603411 -0.0031871547 -0.069475636 -0.026567437 -0.086177364 0.04798968 0.13445774
-0.04872606 0.06790989 0.03125977 -0.086631715 -0.12286143 -0.02549774 0.09407864 0.026533196
-0.05553734 -0.00027150178 -0.00498731 -0.010837155 0.018008884 0.10872068 0.031733118 -0.09833144
-0.10757739 -0.001608213 -0.018713512 0.10793932 -0.087158754 -0.019967029 -0.06291687 -0.089595616
-0.026102964 -0.10113857 0.06473985 0.046202056 0.011805941 -0.05181298 -0.019476071 -0.05863887
-0.0018874137 0.06021951 -0.02677044 0.1385984 -0.043616027 0.11801138 -0.060193136 -0.06685001
0.059204355 -0.034807026 -0.023801327 -0.05113006 -0.08683423 -0.074122235 -0.10218462 -0.09569459
-0.10937172 -0.100579634 0.03084712 -0.116309084 -0.010061125 0.033369727 0.11814253 -0.07779377
-0.0169002 0.09166461 -0.11534737 -0.07036112 0.06269726 0.011932977 -0.03923573 -0.02835066
0.08348838 -0.068200596 0.027344024 -0.027010517 -0.037777007 -0.09253219 -0.100559175 -0.038492255
0.012588752 0.021845527 -0.121292315 0.0071568824 -0.07452232 0.079501964 0.07275803 0.09902426
-0.09844103 -0.071443796 -0.11422302 0.027838215 0.05625352 -0.0048904438 -0.0959386 0.008544741
0.13732506 0.01971567 0.034642752 0.015494086 0.046570115 0.14415872 0.09838273 0.13721253
-0.06165201 0.10252411 0.0033340733 -0.010749727 0.050229177 -0.09002511 0.10019363 -0.016913129
0.11021419 0.07243526 -0.017065434 -0.0726903 -0.075440206 0.0952089 -0.0532826 0.054661393
0.083541214 0.10132319 -0.09028169 -0.08035676 -0.01762994 0.07868654 0.040804315 -0.08456117
-0.009223327 -0.12734039 -0.05242318 -0.0913673 0.026872233 -0.0047516217 0.07026851 0.011863967
-0.12015761 -0.12325856 -0.010153687 -0.11573454 -0.12152094 0.014300854 -0.023606231 -0.06615336
-0.06839169 0.056971975 0.08149424 -0.092489235 0.057997614 0.018788362 0.06320338 0.08248888
-0.05574873 -0.012125532 -0.11864315 -0.08008246 0.11215213 -0.08882851 0.08994812 0.020078212
-0.024065964 0.021742359 -0.09881727 -0.08063936 -0.11614678 -0.10204598 0.11656786 -0.11037981
-0.009209612 0.12310287 -0.001780346 0.10869689 -0.014909759 -0.033061206 -0.11656165 -0.09262079
-0.0040323585 0.100823864 -0.0500738 0.009138271 0.00203623 0.110092625 0.021929694 0.07667728
-0.0011531648 0.079583265 -0.06030194 0.06587319 -0.020495826 -0.026977923 -0.09927981 0.034510553
0.13027376 -0.013131855 0.08723888 -0.003681469 -0.032734886 0.009535336 -0.03805744 -0.081915125
-0.0676474 -0.009401562 -0.09390354 -0.043035638 0.10680942 0.00019117148 -0.030523632 -0.11638376
0.10128102 -0.07204494 -0.009774103 0.0525068 0.07972428 -0.021511031 -0.042385347 0.08505902
0.09203029 -0.0077007925 0.025672903 -0.07016785 0.09470138 0.092556074 -0.06755767 0.11987305
0.143858 -0.058250874 -0.040469076 0.109536126 -0.13516948 0.05657532 0.14875126 -0.01767015
0.103382096 0.1246123 0.112645246 -0.009510901 0.07962012 -0.08086979 0.02413436 0.024423497
00000000: 0662 ec3d bcf1 a2ba 5254 f43d c685 1bbd
00000010: ec5e 3cbb 1eac 9ebc d322 ef3d f865 34bd
00000020: 938b 143e 9edd 14bd 6b55 be3d 8a57 a83c
00000030: e4a2 d0bc 0dd2 a43d 4bcd b33c e646 65bd
00000040: 7fff d93c 0926 f9bb 95df 50bb 3e49 8ebd
00000050: f4a3 d9bc c27d b0bd d490 443d 4aaf 093e
00000060: fa94 47bd 5714 8b3d 3f0a 003d f86b b1bd
00000070: c69e fbbd a3e0 d0bc 4dac c03d 255c d93c
00000080: 1f7b 63bd 5a58 8eb9 976c a3bb 538e 31bc
00000090: 5e87 933c f3a8 de3d 96fa 013d fe61 c9bd
000000a0: 8951 dcbd acca d2ba 144d 99bc 4a0f dd3d
000000b0: 4a80 b2bd e591 a3bc 8fda 80bd e87d b7bd
000000c0: e2d5 d5bc bd21 cfbd 5496 843d 5e3e 3d3d
000000d0: b56d 413c d939 54bd 488c 9fbc 502f 70bd
000000e0: 1863 f7ba bca8 763d af4d dbbc bdec 0d3e
000000f0: b8a6 32bd f3af f13d 148d 76bd a8e8 88bd
00000100: 4480 723d d091 0ebd 00fb c2bc c16d 51bd
00000110: 25d6 b1bd 66cd 97bd 2c46 d1bd 86fb c3bd
00000120: 48fe dfbd b2fc cdbd 19b3 fc3c 7533 eebd
00000130: 6bd7 24bc b2ae 083d b6f4 f13d 5752 9fbd
00000140: 4a72 8abc a8ba bb3d 3e3b ecbd 7e19 90bd
00000150: 6c67 803d 8882 433c a5b5 20bd a53f e8bc
00000160: f5fb aa3d c1ac 8bbd 9300 e03c 2945 ddbc
00000170: 10bc 1abd 8481 bdbd f8f1 cdbd 0eaa 1dbd
00000180: 0e41 4e3c 64f5 b23c 1b68 f8bd 4884 ea3b
00000190: 289f 98bd edd1 a23d 2902 953d 3bcd ca3d
000001a0: 739b c9bd 2051 92bd c2ed e9bd f80c e43c
000001b0: 176a 663d 0440 a0bb 757b c4bd 3eff 0b3c
000001c0: f19e 0c3e c282 a13c 8fe5 0d3d e8da 7d3c
000001d0: 4ec0 3e3d 589e 133e e27c c93d 7181 0c3e
000001e0: d186 7cbd 29f8 d13d 7880 5a3b 9f1f 30bc
000001f0: 1cbd 4d3d 165f b8bd 5132 cd3d 678d 8abc
00000200: fab7 e13d f058 943d cfcc 8bbc a7de 94bd
00000210: 6580 9abd e2fc c23d db3e 5abd a0e4 5f3d
00000220: a817 ab3d 8882 cf3d 9be5 b8bd 1692 a4bd
00000230: aa6c 90bc 6926 a13d 6d22 273d 682e adbd
00000240: 701d 17bc 8565 02be b0b9 56bd c71e bbbd
00000250: 2823 dc3c 7eb3 9bbb f0e8 8f3d 1661 423c
00000260: 3115 f6bd fc6e fcbd a65b 26bc 3b06 edbd
00000270: f8df f8bd 214e 6a3c db61 c1bc 6a7b 87bd
00000280: f110 8cbd 725b 693d 74e6 a63d ff6a bdbd
00000290: e88e 6d3d 0dea 993c c670 813d eeef a83d
000002a0: c858 64bd 2baa 46bc 2efb f2bd 4602 a4bd
000002b0: 04b0 e53d b9eb b5bd b836 b83d 107b a43c
000002c0: fc25 c5bc 081d b23c b560 cabd 4026 a5bd
000002d0: 5dde edbd 7cfd d0bd 21bb ee3d cf0e e2bd
000002e0: eae3 16bc 5c1d fc3d 805a e9ba 7a9c de3d
000002f0: 1048 74bc 306b 07bd e0b7 eebd f8af bdbd
00000300: e021 84bb be7c ce3d 2f1a 4dbd b0b8 153c
00000310: 4572 053b 3e78 e13d e7a5 b33c fa08 9d3d
00000320: ca25 97ba 8dfc a23d 2bff 76bd 86e8 863d
00000330: dde6 a7bc ce00 ddbc 3753 cbbd f05a 0d3d
00000340: 7c66 053e fe26 57bc 4caa b23d cd44 71bb
00000350: 0415 06bd 193a 1c3c 1ee2 1bbd 1ec3 a7bd
00000360: b88a 8abd 0209 1abc 8050 c0bd 2346 30bd
00000370: e6be da3d 3475 4839 b20c fabc 9c5a eebd
00000380: 6c6c cf3d 4c8c 93bd 8f23 20bc 5f11 573d
00000390: 7c46 a33d e737 b0bc 429c 2dbd 6c33 ae3d
000003a0: 607a bc3d ee56 fcbb fb4f d23c 29b4 8fbd
000003b0: ccf2 c13d 0a8e bd3d ad5b 8abd 0080 f53d
000003c0: 834f 133e 7898 6ebd e7c2 25bd 7a54 e03d
000003d0: de69 0abe 86bb 673d 4052 183e fec0 90bc
000003e0: feb9 d33d bc34 ff3d 8db2 e63d 9cd3 1bbc
000003f0: e00f a33d 0f9f a5bd 6cb5 c53c c913 c83c

fc3.bias f4 [128]
-0.014041155 0.06284224 0.0014713352 -0.07795692 0.08651815 -0.07588388 -0.066995084 -0.041614264
0.08137152 0.03385115 -0.021405818 0.13594098 -0.08952666 0.09196359 0.07267472 0.03412847
0.019272722 -0.108072504 -0.06842691 0.11905597 -0.047460288 0.11436257 -0.10780594 0.11837911
-0.11540575 0.024870541 0.09559699 0.021955067 0.088306814 -0.07668454 0.06642284 -0.035746172
0.071266405 -0.06665349 -0.09419095 -0.07232662 0.10566568 -0.12141584 -0.04854375 -0.0492927
0.10777589 0.13166209 0.0018547735 0.03681562 0.11204259 0.08238869 -0.013513431 0.13673556
-0.08459192 0.019208316 0.13447897 -0.07581566 -0.10388751 0.016930636 0.03704873 -0.084542274
0.09539727 -0.02044401 -0.022895133 -0.11036271 0.10016383 0.09057918 -0.055488337 -0.0739223
-0.09492256 -0.024933938 0.13877198 0.11661998 -0.1074368 0.0105199 -0.09792759 0.08200616
-0.11142613 0.020533599 0.117841996 0.13271962 -0.10324793 -0.06943034 -0.04238835 -0.08354883
0.017937021 -0.08724708 0.02494799 -0.09270465 0.08938493 0.051377393 -0.0400815 0.123807795
-0.01722718 -0.027607264 0.13471611 -0.024776544 0.036360454 0.049577404 0.013826014 0.017597578
-0.05876499 0.028031537 -0.04480014 0.10097983 -0.014571807 0.10187935 -0.11045875 0.07316349
0.066730976 0.12304603 -0.09739041 0.09704498 0.09314645 -0.10139542 0.013919122 -0.049904015
-0.04909095 -0.0011703707 0.010632357 -0.10938668 -0.060591266 0.08492828 -0.1219977 0.11928773
0.036762014 0.09015285 -0.012801457 0.11479339 -0.079239264 -0.11436567 -0.008106118 0.13182646
00000000: df0c 66bc 6fb3 803d d1d9 c03a e1a7 9fbd
00000010: 6e30 b13d 0269 9bbd b834 89bd b873 2abd
00000020: 1da6 a63d 81a7 0a3d 415b afbc 1d34 0b3e
00000030: c159 b7bd 6857 bc3d 7cd6 943d 4bca 0b3d
00000040: d4e1 9d3c 1e55 ddbd 6823 8cbd 9ed3 f33d
00000050: b865 42bd ec36 ea3d 5cc9 dcbd bf70 f23d
00000060: da59 ecbd 4ebd cb3c 5bc8 c33d 1ddb b33c
00000070: 34da b43d c90c 9dbd b308 883d 946a 12bd
00000080: 1ff4 913d a081 88bd 2fe7 c0bd fb1f 94bd
00000090: 3f67 d83d dea8 f8bd d0d5 46bd 24e7 49bd
000000a0: 9bb9 dc3d 6dd2 063e df1b f33a facb 163d
000000b0: 9676 e53d 67bb a83d 7067 5dbc 6804 0c3e
000000c0: 873e adbd c25a 9d3c dbb4 093e 3e45 9bbd
000000d0: fac2 d4bd 1eb2 8a3c 69c0 173d 8024 adbd
000000e0: a55f c33d 327a a7bc 938e bbbc d805 e2bd
000000f0: b222 cd3d 9481 b93d bd47 63bd 9364 97bd
00000100: c266 c2bd 4242 ccbc 3e1a 0e3e 75d6 ee3d
00000110: d307 dcbd a95b 2c3c 438e c8bd d8f2 a73d
00000120: 6233 e4bd 1436 a83c 2557 f13d a7e7 073e
00000130: a773 d3bd 7e31 8ebd 689f 2dbd a61b abbd
00000140: a9f0 923c 99ae b2bd ba5f cc3c efdb bdbd
00000150: 720f b73d 1a71 523d 802c 24bd f18e fd3d
00000160: 0420 8dbc a128 e2bc 05f3 093e 2ef8 cabc
00000170: b3ee 143d ad11 4b3d 8186 623c cc28 903c
00000180: 8fb3 70bd 65a2 e53c 5a80 37bd 83ce ce3d
00000190: 97be 6ebc 1fa6 d03d 3238 e2bd bdd6 953d
000001a0: 40aa 883d 8fff fb3d a074 c7bd 85bf c63d
000001b0: 91c3 be3d 67a8 cfbd 070d 643c 2768 4cbd
000001c0: 9813 49bd 2067 99ba 5633 2e3c 2006 e0bd
000001d0: 8c2e 78bd e1ee ad3d eed9 f9bd 204d f43d
000001e0: c493 163d 0fa2 b83d 34bd 51bc cc18 eb3d
000001f0: 3248 a2bd 8c38 eabd 86cf 04bc 84fd 063e

fc4.weight f4 [128, 128]
0.105273165 -0.043775644 -0.011756267 -0.08877194 0.09872385 0.081747815 -0.033297226 -0.004302442
0.033755343 0.11523167 -0.10348839 0.05656551 0.09276073 0.0610027 0.008176742 -0.03272211
-0.07723344 -0.062151752 -0.029672464 -0.016601931 -0.045400396 0.10573398 -0.043798834 0.06840271
-0.06567685 0.05049018 0.061832704 -0.06272621 0.09971259 0.007617167 -0.02319321 -0.058417708
0.0068678726 -0.07228738 0.05315938 -0.032228816 -0.023402754 0.06919476 -0.016840816 -0.06987525
0.055072814 -0.036105484 -0.0039633634 0.095313616 -0.027047273 -0.0893917 -0.024621844 -0.029052055
-0.029281674 0.0066427924 0.0092422 -0.074263304 0.08876173 0.005367165 0.024449166 0.07895727
-0.048591975 0.004070166 0.00097487075 0.0017010272 -0.011107484 -0.042154856 0.018510621 -0.0047136573
0.06886386 0.059004884 -0.025037102 0.06166274 -0.07341157 0.04317894 -0.080379315 -0.037182257
-0.023554616 0.07760855 -0.05214365 0.030776655 0.05901725 0.04319554 -0.083068594 0.060410094
-0.012770848 -0.07512087 0.016411368 0.10223561 0.09783352 0.07529183 -0.029967904 -0.023659164
0.005103763 0.021747166 0.08102916 0.07994179 -0.008796071 -0.055663586 0.06822487 0.03811243
-0.052013732 0.079825655 -0.02843411 -0.06643941 -0.024656491 0.046474848 0.08189768 -0.014336732
0.061648697 -0.057760388 0.008625656 -0.09335023 -0.04286492 -0.008028595 -0.047434613 0.102207325
-0.078632295 -0.07512432 0.01945744 0.022148043 -0.042420704 0.02776761 0.0057797953 -0.08806967
0.03157815 -0.014058601 -0.02896633 -0.09302023 -0.0652584 -0.067268156 -0.025293555 -0.040173657
-0.030998122 1.6592443e-05 0.079525776 0.064468555 -0.017426796 0.08778516 0.07322527 0.06585551
0.041616477 0.060321234 -0.050509002 -0.031876493 -0.06012393 0.07788905 0.0042793155 0.04780311
0.038375698 -0.026066508 -0.034828257 -0.007327907 0.0797474 0.08255746 0.08491775 0.03861972
-0.0126664415 -0.06362262 0.033406213 0.054736607 0.051074006 -0.058700003 -0.0641257 0.0724458
-0.06370641 0.00029630214 -0.07020741 -0.05966804 0.0747175 -0.0502957 -0.08125073 0.01635795
0.028558686 -0.05831045 -0.080990486 -0.02824099 -0.013535209 -0.08831315 0.035040647 0.0136005655
-0.0008976534 0.0757472 0.0833988 0.019303195 0.06319595 -0.08175178 -0.058006138 -0.06909162
-0.021287806 0.0780238 0.0052120984 0.087743424 0.07781231 0.05324831 0.056508027 0.028825715
-0.022043645 -0.05806513 0.030169897 0.06574466 0.061798804 -0.033893555 0.07135507 0.045290314
-0.032681476 -0.0024794638 0.014453247 -0.027839951 -0.033663098 0.08282817 -0.04655053 -0.016526677
0.040661953 -0.05621811 0.00064683706 -0.014310949 -0.07889598 -0.0073969066 -0.048137084 -0.033804502
0.08731768 0.06674638 -0.030077148 0.029919907 -0.06825514 0.08118602 -0.06170854 -0.050093826
-0.06909148 -0.019735381 -0.016788289 -0.034431342 -0.059648633 -0.043412823 -0.076338366 0.015790462
0.023111045 -0.04905006 -0.027907893 -0.050419644 -0.032273803 0.0025853962 -0.08678291 -0.015094563
0.024493359 -0.06892805 0.028915972 0.003853403 0.009826571 -0.03651372 0.02927053 -0.031013064
-0.048860725 0.0074956343 0.046801604 -0.08260013 -0.086567506 0.039358474 -0.03178474 0.042784803
00000000: 7599 d73d 174e 33bd 5c9d 40bc 10ce b5bd
00000010: bb2f ca3d 666b a73d ac62 08bd 80fb 8cbb
00000020: 0b43 0a3d 95fe eb3d b9f1 d3bd 3cb1 673d
00000030: 56f9 bd3d f8dd 793d bef7 053c 9f07 06bd
00000040: 912c 9ebd d692 7ebd ab13 f3bc c600 88bc
00000050: c4f5 39bd 0f8b d83d 6866 33bd b816 8c3d
00000060: 9681 86bd cace 4e3d 4a44 7d3d 9976 80bd
00000070: 1d36 cc3d 6e99 f93b b0ff bdbc 6847 6fbd
00000080: e40b e13b 680b 94bd a6bd 593d 5d02 04bd
00000090: 22b7 bfbc fbb5 8d3d c0f5 89bc c11a 8fbd
000000a0: 0894 613d 58e3 13bd 1adf 81bb c933 c33d
000000b0: 3e92 ddbc ff12 b7bd c0b3 c9bc 93fe edbc
000000c0: 1fe0 efbc c8ab d93b 996c 173c 5c17 98bd
000000d0: b6c8 b53d 0bdf af3b 9e49 c83c 59b4 a13d
000000e0: 6108 47bd 075f 853b 788e 7f3a 00f5 de3a
000000f0: 2afc 35bc 92aa 2cbd 96a3 973c 0675 9abb
00000100: 7f08 8d3d 1baf 713d 9c1a cdbc 1292 7c3d
00000110: ce58 96bd 66dc 303d e99d a4bd 6c4c 18bd
00000120: 9cf5 c0bc 3bf1 9e3d 9494 55bd 531f fc3c
00000130: 12bc 713d ceed 303d de1f aabd 9370 773d
00000140: d23c 51bc f8d8 99bd 2271 863c e760 d13d
00000150: f15c c83d 9a32 9a3d 407f f5bc ddd0 c1bc
00000160: 783d a73b 1d27 b23c 9ef2 a53d 85b8 a33d
00000170: 651d 10bc 80ff 63bd 7bb9 8b3d c81b 1c3d
00000180: 5a0c 55bd a27b a33d a7ee e8bc 6311 88bd
00000190: 69fc c9bc 695c 3e3d f9b9 a73d 9de4 6abc
000001a0: 5883 7c3d 2896 6cbd a052 0d3c 682e bfbd
000001b0: 2093 2fbd 5e8a 03bc cc4a 42bd 1352 d13d
000001c0: f809 a1bd c8da 99bd 3665 9f3c d06f b53c
000001d0: 55c1 2dbd e678 e33c 7064 bd3b df5d b4bd
000001e0: 1758 013d 0c56 66bc cc4a edbc 6481 bebd
000001f0: 32a6 85bd e3c3 89bd 6e34 cfbc 228d 24bd
00000200: c6ef fdbc 0030 8b37 69de a23d 1708 843d
00000210: a4c2 8ebc b5c8 b33d 21f7 953d 41df 863d
00000220: 0a76 2a3d 6613 773d 87e2 4ebd ed90 02bd
00000230: 8344 76bd 4b84 9f3d 8039 8c3b 32cd 433d
00000240: d62f 1d3d 6e89 d5bc 13a8 0ebd f01e f0bb
00000250: 9b52 a33d e313 a93d 5be9 ad3d b62f 1e3d
00000260: e886 4fbc 944c 82bd f4d4 083d 7e33 603d
00000270: fa32 513d 6a6f 70bd 5654 83bd 775e 943d
00000280: 8278 82bd 0059 9b39 e7c8 8fbd 7a66 74bd
00000290: 7d05 993d dd02 4ebd c866 a6bd 1c01 863c
000002a0: e8f3 e93c f0d6 6ebd 57de a5bd a659 e7bc
000002b0: c8c2 5dbc 86dd b4bd c886 0f3d e8d4 5e3c
000002c0: 8050 6bba 5921 9b3d fdcc aa3d bc21 9e3c
000002d0: e16c 813d 7a6d a7bd d897 6dbd e87f 8dbd
000002e0: c463 aebc f1ca 9f3d 40ca aa3b d3b2 b33d
000002f0: 0f5c 9f3d e61a 5a3d f674 673d e823 ec3c
00000300: e094 b4bc b4d5 6dbd dc26 f73c 23a5 863d
00000310: be20 7d3d f8d3 0abd 9b22 923d 5682 393d
00000320: 03dd 05bd 807e 22bb 50cd 6c3c 9c10 e4bc
00000330: 51e2 09bd d1a1 a93d c5ab 3ebd f462 87bc
00000340: 268d 263d f644 66bd 8090 293a 7878 6abc
00000350: 3794 a1bd c061 f2bb 642b 45bd 9776 0abd
00000360: 9dd3 b23d 53b2 883d 5a64 f6bc 981a f53c
00000370: 5ac9 8bbd db44 a63d 18c2 7cbd 2f2f 4dbd
00000380: d57f 8dbd 18ac a1bc 9887 89bc e107 0dbd
00000390: 2052 74bd a5d1 31bd 4a57 9cbd 005b 813c
000003a0: 6053 bd3c b7e8 48bd 189f e4bc d484 4ebd
000003b0: 8931 04bd c06f 293b 3dbb b1bd 304f 77bc
000003c0: 4ca6 c83c 262a 8dbd 30e1 ec3c 6089 7c3b
000003d0: a0ff 203c 698f 15bd c0c8 ef3c 1c0f febc
000003e0: 2f22 48bd f09d f53b 0ab3 3f3d 422a a9bd
000003f0: 4e4a b1bd 5a36 213d b730 02bd 1e3f 2f3d

fc4.bias f4 [128]
0.075803496 -0.069420055 0.023734527 0.011474537 -0.025033787 0.010939554 0.0840239 0.07909473
0.011452499 0.00074555504 -0.02554966 0.054750636 -0.08206105 -0.056598317 0.04091944 0.02729774
0.056232337 -0.08861537 0.007965024 0.08617855 0.04782378 -0.07210069 -0.07781866 -0.007945523
-0.07886726 0.0047982708 0.0943858 -0.038072 0.0014391588 0.09164005 0.03329802 0.03785749
0.027413098 0.072304256 0.0800745 0.106695786 0.040666457 0.018636148 -0.06483295 0.08324871
0.101561956 0.09603575 0.007383272 -0.039026763 0.11292764 -0.034865126 0.051112894 0.068313494
-0.006282016 0.021042192 0.04915065 0.018685607 0.07084111 -0.053367406 0.0626079 0.051512357
-0.07090557 -0.009842759 -0.086706184 0.10158313 0.008317119 -0.0304311 0.041468423 0.018416595
0.068965755 -0.08470276 -0.07578929 -0.05122787 -0.068919145 0.09937332 -0.048862536 -0.03171517
0.08355724 0.031800725 -0.01347358 -0.038731795 -0.08312063 -0.040200982 -0.07235878 -0.02339349
0.04593326 0.066307 -0.019414837 -0.051784478 0.03880258 -0.039537285 -0.059444882 0.035375845
0.048522446 -0.008418348 0.07200955 0.048109196 -0.08205783 0.015296557 0.094898194 -0.057231802
-0.02807137 0.045962982 0.04919965 0.050622012 -0.030394606 0.028553756 0.006673718 -0.04807936
0.027476283 0.09176345 0.08050371 -0.013136957 0.010639784 -0.062004942 0.017094675 0.04875076
0.03596493 0.06985602 -0.026505332 -0.009183344 0.095409766 -0.02091724 0.016718568 -0.03263204
-0.03887404 0.022459297 -0.06528211 -0.048031792 -0.035947148 -0.060348827 -0.025314517 -0.013311462
00000000: dd3e 9b3d 1a2c 8ebd e96e c23c b2ff 3b3c
00000010: a813 cdbc d13b 333c b914 ac3d 6bfc a13d
00000020: 43a3 3b3c 5a71 433a 854d d1bc 3442 603d
00000030: a00f a8bd a3d3 67bd 259b 273d 839f df3c
00000040: e153 663d fa7b b5bd bb7f 023c 617e b03d
00000050: dee2 433d 87a9 93bd 645f 9fbd f02d 02bc
00000060: 2885 a1bd d03a 9d3b 584d c13d 63f1 1bbd
00000070: 28a2 bc3a c7ad bb3d 8163 083d 7510 1b3d
00000080: 6f91 e03c 4114 943d 19fe a33d 5283 da3d
00000090: df91 263d d6aa 983c 23c7 84bd 4d7e aa3d
000000a0: b7ff cf3d 64ae c43d 60ef f13b 87da 1fbd
000000b0: 9b46 e73d bcce 0ebd c15b 513d f2e7 8b3d
000000c0: 5fd9 cdbb ad60 ac3c 3152 493d 8f12 993c
000000d0: 2515 913d c897 5abd 9238 803d 9ffe 523d
000000e0: f136 91bd 8643 21bc 0393 b1bd d10a d03d
000000f0: 8744 083c a44a f9bc cbda 293d 66de 963c
00000100: eb3d 8d3d a478 adbd 6a37 9bbd 51d4 51bd
00000110: 7b25 8dbd 3d84 cb3d 1524 48bd c4e7 01bd
00000120: 0f20 ab3d 7a41 023d 4ac0 5cbc 3ba5 1ebd
00000130: 263b aabd c9a9 24bd d730 94bd b4a3 bfbc
00000140: 8424 3c3d f7cb 873d dd0b 9fbc f61b 54bd
00000150: 74ef 1e3d d9f1 21bd 7a7c 73bd 43e6 103d
00000160: 79bf 463d 1ced 09bc be79 933d 260e 453d
00000170: f00d a8bd 699e 7a3c fc59 c23d e56b 6abd
00000180: eef5 e5bc ae43 3c3d 9285 493d 0759 4f3d
00000190: 1cfe f8bc 91e9 e93c 34af da3b ddee 44bd
000001a0: f115 e13c 7aee bb3d 21df a43d 643c 57bc
000001b0: 7d52 2e3c e5f8 7dbd 220a 8c3c e0ae 473d
000001c0: f64f 133d ac10 8f3d b621 d9bc bd75 16bc
000001d0: 3266 c33d a25a abbc 61f5 883c 2da9 05bd
000001e0: 633a 1fbd 8ffc b73c a0b2 85bd fcbc 44bd
000001f0: 513d 13bd 5530 77bd 6460 cfbc 5118 5abc

fc5.weight f4 [256, 128]
0.0841712 0.047221683 -0.04235555 0.016021885 0.012595326 0.015234344 -0.031325012 0.084358685
0.016026087 -0.06041605 0.032334574 -0.0381577 0.080588065 -0.06810408 -0.016211808 0.08308353
0.012879968 -0.06241358 -0.047219053 0.011365898 0.043664 -0.01984632 -0.08310124 0.008846223
0.041203268 0.056831427 -0.021848492 -0.028228685 -0.028206926 0.073847525 -0.06463876 -0.06278833
-0.03384448 0.08525685 -0.036387797 0.025937296 -0.040676683 -0.064861745 0.086263485 -0.030539017
-0.02788252 -0.07352029 -0.06779927 -0.041356057 -0.0716698 -0.082763724 -0.035005666 -0.018496163
0.07261745 0.016214602 0.02853486 0.026776142 0.009104602 -0.07665927 -0.023246892 -0.038813654
-0.0146477595 0.052483 -0.029327482 0.05696363 -0.07134819 0.07434482 0.041659214 -0.059990108
0.06888115 0.07183059 -0.076257385 -0.038792126 -0.017938197 0.044954307 -0.04843461 -0.05784367
0.070391975 0.062201522 0.023292601 -0.07318187 -0.024733238 -0.033725318 -0.018856503 -0.0243529
-0.050639626 0.06386279 -0.087251775 -0.022057824 0.0381668 0.046545096 -0.06943168 -0.08579739
0.042869978 -0.018971331 -0.08057894 -0.009887524 0.016524926 -0.0880839 -0.043920323 0.037768044
-0.05418307 0.046627887 0.007341832 0.02722165 -0.011191435 -0.02154456 0.029406212 0.050669782
0.029025957 -0.07103902 -0.037024174 0.07701223 0.05422718 0.022483602 -0.08070863 0.08648092
0.025181942 0.010918289 -0.039572172 -0.0017758459 -0.047621187 -0.0068519264 0.007085599 -0.027911972
0.07233741 -0.06353803 -0.076360464 0.046146877 -0.039316107 -0.046536695 -0.05294485 0.070590116
0.048537478 -0.0775252 0.02058908 -0.044500753 0.058371462 -0.02949883 0.048115112 0.096845604
-0.06893884 0.0008411435 0.058275793 0.057171766 0.003862718 0.046441145 -0.016352084 0.09606515
0.06701925 0.023076123 -0.07179096 0.039116517 0.07871249 0.08275455 -0.02863637 -0.073893294
-0.042622097 0.044076093 -0.049257852 0.081970565 0.09336981 0.055868693 -0.07923153 0.08434231
-0.013252333 -0.04964834 0.10230264 0.065006286 0.05894863 -0.023431273 0.09113172 0.09463051
0.008198315 -0.03620954 -0.088021845 -0.055694666 -0.056547757 0.07243008 0.009005079 0.06874934
0.030375227 0.067806415 0.09162959 -0.045006838 0.040047273 0.027994864 0.03996915 -0.057400167
0.06793321 -0.05739833 -0.071765155 0.09484579 -0.016544288 -0.07022108 -0.0035438407 -0.047205906
-0.062223107 0.046552993 0.04141756 -0.0005553514 -0.038850583 0.0074615893 0.01779005 -0.06022156
-0.042835325 0.03747295 -0.057882845 -0.009906292 0.080391176 0.037289307 0.06874699 0.08847032
0.10881421 0.018306162 0.0110098515 0.032528855 -0.006080045 -0.08538277 -0.019329343 0.09202651
0.049005933 0.052171856 -0.02702055 -8.033986e-05 0.055940054 0.07611189 -0.07547952 0.039639827
0.005492173 0.051346354 -0.027663978 -0.011106472 0.023718383 0.10431603 -0.034724586 0.09011584
-0.09686722 0.048171114 0.06410563 0.05216437 -0.040577624 -0.059656646 -0.046470076 -0.028595615
0.07726076 -0.055250213 -0.032478012 -0.011173606 -0.020837933 -0.008785309 0.03929051 -0.022541516
-0.070228964 0.09115231 -0.05359368 -0.017956771 0.04343972 0.025998697 -0.076711625 -0.09995
00000000: f361 ac3d 866b 413d 037d 2dbd 5440 833c
00000010: a05c 4e3c 7899 793c a84e 00bd 3fc4 ac3d
00000020: 2449 833c d276 77bd 4271 043d 404b 1cbd
00000030: 5b0b a53d 277a 8bbd a0ce 84bc b327 aa3d
00000040: 8006 533c 62a5 7fbd c468 41bd 0838 3a3c
00000050: 06d9 323d c094 a2bc fc30 aabd c0ef 103c
00000060: c2c4 283d 12c8 683d 9cfb b2bc d83f e7bc
00000070: 3612 e7bc 5f3d 973d 5461 84bd 2b97 80bd
00000080: 82a0 0abd 259b ae3d 5f0b 15bd 747a d43c
00000090: 989c 26bd 3cd6 84bd e9aa b03d f62c fabc
000000a0: e269 e4bc ce91 96bd 58da 8abd f864 29bd
000000b0: 9ec7 92bd 0780 a9bd 1a62 0fbd 4485 97bc
000000c0: 75b8 943d 7cd4 843c f0c1 e93c a459 db3c
000000d0: 782b 153c 89ff 9cbd 4470 bebc 11fb 1ebd
000000e0: 28fd 6fbc 6af8 563d 3040 f0bc b252 693d
000000f0: 001f 92bd 1942 983d daa2 2a3d 30b8 75bd
00000100: 8f11 8d3d eb1b 933d d52c 9cbd 7ee4 1ebd
00000110: 20f3 92bc 0222 383d 5f63 46bd 7ced 6cbd
00000120: ab29 903d 06c7 7e3d 20d0 be3c 60e0 95bd
00000130: 5c9d cabc 8f23 0abd f478 9abc bc7f c7bc
00000140: 7f6b 4fbd 7fca 823d 0fb1 b2bd 9cb2 b4bc
00000150: ca54 1c3d 12a6 3e3d 3232 8ebd 8bb6 afbd
00000160: 6e98 2f3d c469 9bbc 9206 a5bd 48ff 21bc
00000170: 485f 873c 5565 b4bd cce5 33bd aab2 1a3d
00000180: 11ef 5dbd e2fc 3e3d c093 f03b f0ff de3c
00000190: 485c 37bc 387e b0bc 4ce5 f03c 1e8b 4f3d
000001a0: d8c7 ed3c e87c 91bd a9a6 17bd 97b8 9d3d
000001b0: 521d 5e3d 882f b83c 914a a5bd e91c b13d
000001c0: 5c4a ce3c a0e2 323c 6e16 22bd 80c3 e8ba
000001d0: 6f0e 43bd 2086 e0bb 502e e83b a6a7 e4bc
000001e0: a325 943d 3a20 82bd e062 9cbd 8204 3d3d
000001f0: ed09 21bd 439d 3ebd b3dc 58bd 8d91 903d
00000200: 3ccf 463d 88c5 9ebd 6eaa a83c 6c46 36bd
00000210: ea16 6f3d 88a7 f1bc 5a14 453d fd56 c63d
00000220: ce2f 8dbd 2f80 5c3a 99b2 6e3d f12c 6a3d
00000230: a725 7d3b 1239 3e3d cef4 85bc cebd c43d
00000240: 6341 893d 230a bd3c 2407 93bd a438 203d
00000250: 0434 a13d 387b a93d d296 eabc 5e55 97bd
00000260: 8294 2ebd 2289 343d 9ac2 49bd 2fe0 a73d
00000270: ac38 bf3d 92d6 643d 2444 a2bd a9bb ac3d
00000280: 5020 59bc 0f5c 4bbd 0c84 d13d 0422 853d
00000290: 1e74 713d f1f2 bfbc 44a3 ba3d a4cd c13d
000002a0: 3a52 063c 7450 14bd cc44 b4bd 1720 64bd
000002b0: 9f9e 67bd 3956 943d 0a8a 133c 74cc 8c3d
000002c0: 78d5 f83c 17de 8a3d 4ba8 bb3d 1759 38bd
000002d0: 9c08 243d 7c55 e53c b1b6 233d 701c 6bbd
000002e0: 9120 8b3d 831a 6bbd 9cf9 92bd 823e c23d
000002f0: e387 87bc 12d0 8fbd c83f 68bb fb5a 41bd
00000300: a8dd 7ebd 5aae 3e3d 76a5 293d 0095 11ba
00000310: ca21 1fbd 5980 f43b 70bc 913c e2aa 76bd
00000320: 1874 2fbd 3c7d 193d 9016 6dbd 004e 22bc
00000330: 21a4 a43d acbc 183d 39cb 8c3d ed2f b53d
00000340: fcd9 de3d cef6 953c aa62 343c fa3c 053d
00000350: 1d3b c7bb 29dd aebd 9258 9ebc 6578 bc3d
00000360: 72ba 483d 28b2 553d 335a ddbc 227c a8b8
00000370: 6621 653d 8de0 9b3d 0295 9abd 5f5d 223d
00000380: b0f7 b33b 8e50 523d 919f e2bc ecf7 35bc
00000390: 0e4d c23c a5a3 d53d 5e3b 0ebd a78e b83d
000003a0: 5262 c6bd 134f 453d d049 833d 4eaa 553d
000003b0: b934 26bd 875a 74bd 6857 3ebd 5a41 eabc
000003c0: e43a 9e3d 0c4e 62bd aa07 05bd 8011 37bc
000003d0: 50b4 aabc 42f0 0fbc 16ef 203d fca8 b8bc
000003e0: 34d4 8fbd 10ae ba3d 0c85 5bbd 141a 93bc
000003f0: d9ed 313d 38fb d43c fc1a 9dbd 96b2 ccbd

fc5.bias f4 [256]
-0.008142188 -0.007980801 0.040836573 -0.017927105 -0.07712989 -0.07720288 -0.06776919 -0.074035116
-0.070398234 0.014676994 -0.036131274 0.045975685 0.0119105745 0.01847663 0.080962256 0.0392799
0.050555266 -0.067936555 0.0453376 0.048314326 0.09672995 0.061372165 0.07487002 0.010422847
-0.046240192 -0.082163155 0.055529404 0.07095797 -0.049457725 0.062031228 -0.0031649773 0.0925734
-0.0031398383 -0.06357845 -0.059100367 -0.034398682 -0.009954905 -0.0795427 -0.023915684 -0.010459289
0.06248643 0.020028856 0.026946628 0.0367346 0.09477086 0.054901004 0.095162034 0.02214243
-0.074413486 -0.07097962 -0.05402265 0.05844836 -0.07577311 -0.02883195 -0.05534236 0.08837547
-0.060282487 0.04701595 0.003544785 0.046420522 -0.082870595 -0.017088786 0.06885405 0.074256
0.013011523 0.046210594 0.08430399 0.08496582 0.012891692 0.08217686 -0.029735833 0.036294322
-0.053199347 0.040783178 0.07657589 0.021320403 0.08730534 0.023695694 0.069494516 -0.04210177
0.036313735 -0.06896886 0.0062053245 -0.049461108 -0.032253787 -0.00050938874 0.023536894 0.06576687
-0.050762076 0.041948773 -0.03707985 0.009745045 -0.019814668 0.09106396 0.106695026 -0.029586995
-0.0078859255 0.01747283 -0.043727156 0.06968358 -0.00017292239 -0.07045947 -0.063665755 -0.056720827
-0.0488523 -0.062537394 0.083309926 -0.07190026 0.009740496 0.048252825 0.0174518 0.0032029822
-0.06511077 -0.07999075 0.06548752 -0.08930459 -0.017968237 -0.047165528 0.03440693 0.0015428162
-0.020914927 0.08167471 0.05569964 0.0119433645 -0.07183824 0.025532193 0.046535525 -0.05599433
-0.08191023 -0.029405352 -0.016640283 0.00021254661 0.033278696 0.008646364 -0.025405407 -0.028777188
-0.08082668 0.024630418 -0.0042587635 0.051170826 0.08459119 0.032872148 0.046991132 0.080277644
-0.04423236 0.06919749 0.049689718 0.080388285 -0.067130215 -0.062785484 0.08012944 -0.06071558
-0.0026836484 -0.08769107 0.053243656 0.042602845 0.026054032 0.024596054 0.07297552 -0.07457903
-0.009512481 -0.057938755 -0.081973016 0.09376401 0.05373807 0.07489466 0.07166522 0.013232534
-0.0016731694 0.08211823 -0.0001515001 0.04089715 -0.046193957 0.074127756 -0.024251126 0.07285402
0.061035052 0.04780416 0.0897449 0.082048476 -0.07490004 0.0902173 0.056481346 -0.03662255
0.05297694 -0.00013290888 0.036995433 0.024876378 0.044683293 -0.07064128 -0.030809969 -0.028092945
0.06757046 0.011576254 -0.043367255 -0.0441775 0.009356798 0.038376193 -0.06477171 0.031074494
0.07992901 0.042018313 0.091163374 0.071704365 0.033996716 -0.060926624 0.02437034 -0.04631806
0.020643426 -0.05088277 -0.060455427 -0.00079460203 -0.046573006 0.08406213 -0.0018484518 0.002739422
-0.07986372 -0.014094412 -0.031224513 0.0026109344 -0.052017894 -0.0428405 -0.038084935 0.066978194
0.09167683 -0.011687714 0.039167568 -0.019784722 0.071877025 0.038830545 0.09099167 -0.087446235
0.008766713 -0.053606745 -0.06973523 0.060473263 0.02483335 -0.00033571533 0.041960515 -0.01135211
-0.0022020603 -0.04608609 -0.016082443 -0.08031882 0.024203582 -0.016003408 0.09098247 -0.01968058
0.09922912 -0.05748616 -0.023815885 -0.04006639 0.09860024 0.0007853664 0.06262286 -0.03243447
00000000: d066 05bc e8c1 02bc 4044 273d dddb 92bc
00000010: 47f6 9dbd 8b1c 9ebd 93ca 8abd b99f 97bd
00000020: f32c 90bd c677 703c 63fe 13bd 0051 3c3d
00000030: 9224 433c 4d5c 973c 8acf a53d f6e3 203d
00000040: 0a13 4f3d 5222 8bbd ebb3 393d 3ee5 453d
00000050: 5a1a c63d 6161 7b3d 7455 993d 97c4 2a3c
00000060: 5b66 3dbd 2845 a8bd cd72 633d 6a52 913d
00000070: 2f94 4abd 7514 7e3d 826b 4fbb 1f97 bd3d
00000080: bfc5 4dbb 6b35 82bd 3a13 72bd a2e5 0cbd
00000090: e619 23bc 48e7 a2bd d3ea c3bc 705d 2bbc
000000a0: c5f1 7f3d 8e13 a43c 2dbf dc3c 0577 163d
000000b0: 3a17 c23d e0df 603d 50e4 c23d 0b64 b53c
000000c0: 1966 98bd c35d 91bd db46 5dbd 8c67 6f3d
000000d0: ef2e 9bbd fb30 ecbc acae 62bd 33fe b43d
000000e0: c5ea 76bd cc93 403d a04f 683b 7223 3e3d
000000f0: 0fb8 a9bd c8fd 8bbc 5a03 8d3d 8813 983d
00000100: 482e 553c 5247 3d3d 92a7 ac3d 8f02 ae3d
00000110: ad37 533c 574c a83d 9098 f3bc 5ba9 143d
00000120: 8fe7 59bd 430c 273d d2d3 9c3d 20a8 ae3c
00000130: 24cd b23d 791d c23c 2453 8e3d e872 2cbd
00000140: b6bd 143d 8c3f 8dbd 0956 cb3b bb97 4abd
00000150: 8c1c 04bd 8088 05ba 72d0 c03c c8b0 863d
00000160: e5eb 4fbd 7ad2 2b3d 0ae1 17bd aea9 1f3c
00000170: 5f52 a2bc be7f ba3d ec82 da3d 6d60 f2bc
00000180: f833 01bc 2e23 8f3c 3f1b 33bd 44b6 8e3d
00000190: 8052 35b9 0e4d 90bd 3163 82bd 1954 68bd
000001a0: 5919 48bd 9b13 80bd 659e aa3d 7240 93bd
000001b0: 9a96 1f3c c1a4 453d 14f7 8e3c 20e9 513b
000001c0: cc58 85bd 31d2 a3bd 521e 863d 53e5 b6bd
000001d0: 2032 93bc a430 41bd 48ee 0c3d 5238 ca3a
000001e0: c855 abbc 1245 a73d 4e25 643d 1aae 433c
000001f0: ed1f 93bd e428 d13c 099c 3e3d 505a 65bd
00000200: 8dc0 a7bd 7ee3 f0bc 3451 88bc 0cdf 5e39
00000210: 3e4f 083d 7ba9 0d3c 001f d0bc 23be ebbc
00000220: 7588 a5bd bbc5 c93c 198d 8bbb 8098 513d
00000230: 253e ad3d f2a4 063d c679 403d 9b68 a43d
00000240: fe2c 35bd 6ab7 8d3d 7287 4b3d 9da2 a43d
00000250: 917b 89bd ad95 80bd e71a a43d e6b0 78bd
00000260: 26e0 2fbb 6097 b3bd 0516 5a3d 5280 2e3d
00000270: 446f d53c aa7d c93c 3074 953d e4bc 98bd
00000280: 3dda 1bbc 3051 6dbd 78e1 a7bd 5807 c03d
00000290: 731c 5c3d 5f62 993d 37c5 923d 45cd 583c
000002a0: 404e dbba 9a2d a83d 00dc 1eb9 c583 273d
000002b0: e035 3dbd 4bd0 973d 4caa c6bc 7d34 953d
000002c0: e4ff 793d 4bce 433d 2dcc b73d 0809 a83d
000002d0: 3165 99bd d9c3 b83d fc58 673d 8701 16bd
000002e0: 59fe 583d 755d 0bb9 8688 173d 8cc9 cb3c
000002f0: d405 373d 60ac 90bd 3065 fcbc 2d23 e6bc
00000300: 6262 8a3d 54aa 3d3c dda1 31bd 77f3 34bd
00000310: 414d 193c 5b30 1d3d 08a7 84bd f08f fe3c
00000320: d2b1 a33d 651b 2c3d ddb3 ba3d bdd9 923d
00000330: 2440 0b3d 328e 79bd 4fa4 c73c 02b8 3dbd
00000340: 671c a93c 746a 50bd 1ca0 77bd d74c 50ba
00000350: 56c3 3ebd c428 ac3d c047 f2ba e087 333b
00000360: 978f a3bd 40ec 66bc 8dca ffbc 361c 2b3b
00000370: b710 55bd 8579 2fbd f3fe 1bbd dd2b 893d
00000380: 10c1 bb3d d37d 3fbc 2c6e 203d 9213 a2bc
00000390: 4334 933d c70c 1f3d d759 ba3d 0317 b3bd
000003a0: 42a2 0f3c bf92 5bbd 58d1 8ebd d0b2 773d
000003b0: 4f6f cb3c f302 b0b9 cade 2b3d 33fe 39bc
000003c0: 7150 10bb c5c4 3cbd 54bf 83bc 327e a4bd
000003d0: 9746 c63c 9419 83bc 0455 ba3d 2b39 a1bc
000003e0: a338 cb3d 9c76 6bbd 8819 c3bc a81c 24bd
000003f0: ecee c93d 0ce1 4d3a 6a40 803d 02da 04bd
